…
e> leads to <code>ZeroPadding1D</code>, but it <em>doesn't</em> change build order (don't know why)</li>\n</ul>\n\n<hr>\n\n<p><strong><code>model_A.summary()</code></strong>:</p>\n\n<pre class=\"lang-py prettyprint-override\"><code>Layer (type)                    Output Shape         Param #     Connected to     \n==================================================================================\ninput_1 (InputLayer)            [(32, 240, 4)]       0                            \n__________________________________________________________________________________\nconv1d (Conv1D)                 (32, 2, 16)          1296        input_1[0][0]    \n__________________________________________________________________________________\nconv1d_1 (Conv1D)               (32, 2, 16)          12816       input_1[0][0]    \n__________________________________________________________________________________\nbn_1 (BatchNormalization)       (32, 2, 16)          64          conv1d[0][0]     \n__________________________________________________________________________________\nbn_2 (BatchNormalization)       (32, 2, 16)          64          conv1d_1[0][0]   \n__________________________________________________________________________________\nconcatenate (Concatenate)       (32, 2, 32)          0           bn_1[0][0]       \n                                                                 bn_2[0][0]       \n__________________________________________________________________________________\ngap_0 (GlobalAveragePooling1D)  (32, 32)             0           concatenate[0][0]\n__________________________________________________________________________________\ndense (Dense)                   (32, 1)              33          gap_0[0][0]      \n</code></pre>\n\n<p><strong><code>model_B.summary()</code></strong> <em>(note the swapped layers)</em></p>\n\n<pre class=\"lang-py prettyprint-override\"><code>input_2 (InputLayer)            [(32, 250, 4)]       0                               \n_____________________________________________________________________________________\nconv1d_2 (Conv1D)               (32, 2, 16)          1296        input_2[0][0]       \n_____________________________________________________________________________________\nbn_1 (BatchNormalization)       (32, 2, 16)          64          conv1d_2[0][0]      \n_____________________________________________________________________________________\nconv1d_3 (Conv1D)               (32, 3, 16)          12816       input_2[0][0]       \n_____________________________________________________________________________________\nzero_padding1d (ZeroPadding1D)  (32, 3, 16)          0           bn_1[0][0]          \n_____________________________________________________________________________________\nbn_2 (BatchNormalization)       (32, 3, 16)          64          conv1d_3[0][0]      \n_____________________________________________________________________________________\nconcatenate_1 (Concatenate)     (32, 3, 32)          0           zero_padding1d[0][0]\n                                                                 bn_2[0][0]          \n_____________________________________________________________________________________\ngap_0 (GlobalAveragePooling1D)  (32, 32)             0           concatenate_1[0][0] \n_____________________________________________________________________________________\ndense_1 (Dense)                 (32, 1)              33          gap_0[0][0]  \n</code></pre>\n\n<hr>\n\n<p><strong>Minimally reproducible code</strong>:</p>\n\n<pre class=\"lang-py prettyprint-override\"><code># also works with `from keras`\nfrom tensorflow.keras.layers import Input, Conv1D, ZeroPadding1D, concatenate\nfrom tensorflow.keras.layers import BatchNormalization, Dense, GlobalAveragePooling1D\nfrom tensorflow.keras.models import Model\nimp
…
