…
d weights", "body": "<p>I'm using this:</p>\n<pre><code>Python version: 3.7.7 (default, May  6 2020, 11:45:54) [MSC v.1916 64 bit (AMD64)]\nTensorFlow version: 2.1.0\nEager execution: True\n</code></pre>\n<p>With a U-Net model with this summary:</p>\n<pre><code>Model: &quot;model&quot;\n__________________________________________________________________________________________________\nLayer (type)                    Output Shape         Param #     Connected to\n==================================================================================================\ninput_1 (InputLayer)            [(None, 200, 200, 1) 0\n__________________________________________________________________________________________________\nconv1_1 (Conv2D)                (None, 200, 200, 64) 1664        input_1[0][0]\n__________________________________________________________________________________________________\nconv1_2 (Conv2D)                (None, 200, 200, 64) 102464      conv1_1[0][0]\n__________________________________________________________________________________________________\npool1 (MaxPooling2D)            (None, 100, 100, 64) 0           conv1_2[0][0]\n__________________________________________________________________________________________________\nconv2_1 (Conv2D)                (None, 100, 100, 96) 55392       pool1[0][0]\n__________________________________________________________________________________________________\nconv2_2 (Conv2D)                (None, 100, 100, 96) 83040       conv2_1[0][0]\n__________________________________________________________________________________________________\npool2 (MaxPooling2D)            (None, 50, 50, 96)   0           conv2_2[0][0]\n__________________________________________________________________________________________________\nconv3_1 (Conv2D)                (None, 50, 50, 128)  110720      pool2[0][0]\n__________________________________________________________________________________________________\nconv3_2 (Conv2D)                (None, 50, 50, 128)  147584      conv3_1[0][0]\n__________________________________________________________________________________________________\npool3 (MaxPooling2D)            (None, 25, 25, 128)  0           conv3_2[0][0]\n__________________________________________________________________________________________________\nconv4_1 (Conv2D)                (None, 25, 25, 256)  295168      pool3[0][0]\n__________________________________________________________________________________________________\nconv4_2 (Conv2D)                (None, 25, 25, 256)  1048832     conv4_1[0][0]\n__________________________________________________________________________________________________\npool4 (MaxPooling2D)            (None, 12, 12, 256)  0           conv4_2[0][0]\n__________________________________________________________________________________________________\nconv5_1 (Conv2D)                (None, 12, 12, 512)  1180160     pool4[0][0]\n__________________________________________________________________________________________________\nconv5_2 (Conv2D)                (None, 12, 12, 512)  2359808     conv5_1[0][0]\n__________________________________________________________________________________________________\nup_conv5 (UpSampling2D)         (None, 24, 24, 512)  0           conv5_2[0][0]\n__________________________________________________________________________________________________\ncrop_conv4 (Cropping2D)         (None, 24, 24, 256)  0           conv4_2[0][0]\n__________________________________________________________________________________________________\nconcatenate (Concatenate)       (None, 24, 24, 768)  0           up_conv5[0][0]\n                                                                 crop_conv4[0][0]\n__________________________________________________________________________________________________\nconv6_1 (Conv2D)                (None, 24, 24, 256)  1769728     concatenate[0][0]\n__________________________________________________________________________________________________\nconv6_2 (Conv2D)                (None, 24, 24, 256)  590080      conv6_1[0][0]\n__________________________________________________________________________________________________\nup_conv6 (UpSampling2D)         (None, 48, 48, 256)  0           conv6_2[0][0]\n__________________________________________________________________________________________________\ncrop_conv3 (Cropping2D)         (None, 48, 48, 128)  0           conv3_2[0][0]\n__________________________________________________________________________________________________\nconcatenate_1 (Concatenate)     (None, 48, 48, 384)  0           up_conv6[0][0]\n                                                                 crop_conv3[0][0]\n__________________________________________________________________________________________________\nconv7_1 (Conv2D)                (None, 48, 48, 128)  442496      concatenate_1[0][0]\n__________________________________________________________________________________________________\nconv7_2 (Conv2D)                (None, 48, 48, 128)  147584      conv7_1[0][0]\n__________________________________________________________________________________________________\nup_conv7 (UpSampling2D)         (None, 96, 96, 128)  0           conv7_2[0][0]\n__________________________________________________________________________________________________\ncrop_conv2 (Cropping2D)         (None, 96, 96, 96)   0           conv2_2[0][0]\n__________________________________________________________________________________________________\nconcatenate_2 (Concatenate)     (None, 96, 96, 224)  0           up_conv7[0][0]\n                                                                 crop_conv2[0][0]\n__________________________________________________________________________________________________\nconv8_1 (Conv2D)                (None, 96, 96, 96)   193632      concatenate_2[0][0]\n__________________________________________________________________________________________________\nconv8_2 (Conv2D)                (None, 96, 96, 96)   83040       conv8_1[0][0]\n__________________________________________________________________________________________________\nup_conv8 (UpSampling2D)         (None, 192, 192, 96) 0           conv8_2[0][0]\n__________________________________________________________________________________________________\ncrop_conv1 (Cropping2D)         (None, 192, 192, 64) 0           conv1_2[0][0]\n__________________________________________________________________________________________________\nconcatenate_3 (Concatenate)     (None, 192, 192, 160 0           up_conv8[0][0]\n                                                                 crop_conv1[0][0]\n__________________________________________________________________________________________________\nconv9_1 (Conv2D)                (None, 192, 192, 64) 92224       concatenate_3[0][0]\n__________________________________________________________________________________________________\nconv9_2 (Conv2D)                (None, 192, 192, 64) 36928       conv9_1[0][0]\n__________________________________________________________________________________________________\nconv9_3 (ZeroPadding2D)         (None, 200, 200, 64) 0           conv9_2[0][0]\n__________________________________________________________________________________________________\nconv10_1 (Conv2D)               (None, 200, 200, 1)  65          conv9_3[0][0]\n==================================================================================================\nTotal params: 8,740,609\nTrainable params: 8,740,609\nNon-trainable params: 0\n</code></pre>\n<p>And with this implementation:</p>\n<pre><code>inputs = Input(shape=img_shape)\n\n    conv1 = Conv2D(64, (5, 5), activation='relu', padding='same', data_format=&quot;channels_last
…
