…
d-CAM for this trained network?\nThese are the steps I tried,</p>\n<pre><code>#load model and custom metrics\ndependencies = {'recall_m': recall_m, 'precision_m' : precision_m, 'f1_m' : f1_m }\nmodel = keras.models.load_model(&quot;model_val_acc-73.33.h5&quot;, custom_objects = dependencies)\nmodel.summary()\n</code></pre>\n<pre><code>Model: &quot;sequential_9&quot;\n_________________________________________________________________\nLayer (type)                 Output Shape              Param #   \n=================================================================\ndensenet121 (Functional)     (None, 4, 4, 1024)        7037504   \n_________________________________________________________________\nflatten (Flatten)            (None, 16384)             0         \n_________________________________________________________________\ndense_encoder (Dense)        (None, 1024)              16778240  \n_________________________________________________________________\ndropout_51 (Dropout)         (None, 1024)              0         \n_________________________________________________________________\ndense_2 (Dense)              (None, 256)               262400    \n_________________________________________________________________\ndropout_52 (Dropout)         (None, 256)               0         \n_________________________________________________________________\ndense_3 (Dense)              (None, 128)               32896     \n_________________________________________________________________\ndropout_53 (Dropout)         (None, 128)               0         \n_________________________________________________________________\ndense_4 (Dense)              (None, 64)                8256      \n_________________________________________________________________\ndropout_54 (Dropout)         (None, 64)                0         \n_________________________________________________________________\ndense_5 (Dense)              (None, 32)                2080      \n_________________________________________________________________\ndropout_55 (Dropout)         (None, 32)                0         \n_________________________________________________________________\nFinal (Dense)                (None, 2)                 66        \n=================================================================\nTotal params: 24,121,442\nTrainable params: 17,083,938\nNon-trainable params: 7,037,504\n</code></pre>\n<p>This is the heat map function:-</p>\n<pre><code>###defining heat map\n\ndef make_gradcam_heatmap(img_array, model, last_conv_layer_name, classifier_layer_names):\n    # First, we create a model that maps the input im
…
