…
ack-train-function-error", "title": "Function call stack: train_function error", "body": "<p>I have a dataset with 565 features and 10 different columns on the prediction site for predicting labels in the training model.Here is the model summary dimensions :</p>\n<pre><code>_________________________________________________________________\nModel: &quot;sequential&quot;\n_________________________________________________________________\nLayer (type)                 Output Shape              Param #\n=================================================================\nconv1d (Conv1D)              (None, 563, 64)           256\n_________________________________________________________________\nflatten (Flatten)            (None, 36032)             0\n_________________________________________________________________\ndense (Dense)                (None, 50)                1801650\n_________________________________________________________________\ndense_1 (Dense)              (None, 50)                2550\n_________________________________________________________________\ndense_2 (Dense)              (None, 50)                2550\n_________________________________________________________________\ndense_3 (Dense)              (None, 50)                2550\n_________________________________________________________________\ndense_4 (Dense)              (None, 10)                510\n=================================================================\nTotal params: 1,810,066\nTrainable params: 1,810,066\nNon-trainable params: 0\n</code></pre>\n<p>Datatypes of the dataset and null values in each of the column :</p>\n<pre><code>0      float64\n1      float64\n2      float64\n3      float64\n4      float64\n        ...\n570    float64\n571    float64\n572    float64\n573    float
…
