…
\n\n\ngan_model = gan.build_gan(generator, discriminator)\ngan_model.compile(loss=&quot;binary_crossentropy&quot;, optimizer=tf.keras.optimizers.Adam(lr=0.001))\n\ngan.train(train_data=train, generator=generator, discriminator=discriminator,\n          gan=gan_model, iterations=iterations, batch_size=batch_size, z_dim=z_dim)\n\n\nModel: &quot;gan_discriminator&quot;\n_________________________________________________________________\nLayer (type)                 Output Shape              Param #   \n=================================================================\ndiscriminator_reshape (Resha (None, 18)                0         \n_________________________________________________________________\ndiscriminator_emb (Embedding (None, 18, 200)           10800     \n_________________________________________________________________\ndiscriminator_lstm (Bidirect (None, 18, 256)           336896    \n_________________________________________________________________\ndiscriminator_dropout (Dropo (None, 18, 256)           0         \n_________________________________________________________________\ndiscriminator_lstm2 (LSTM)   (None, 128)               197120    \n_________________________________________________________________\ndiscriminator_dropout2 (Drop (None, 128)               0         \n_________________________________________________________________\ndiscriminator_output (Dense) (None, 1)                 129       \n=================================================================\nTotal params: 544,945\nTrainable params: 534,145\nNon-trainable params: 10,800\n_________________________________________________________________\nModel: &quot;generator_model&quot;\n_________________________________________________________________\nLayer (type)                 Output Shape              Param #   \n=================================================================\ngenerator_input (InputLayer) [(None, 128)]             0         \n_________________________________________________________________\ngenerator_repeat (RepeatVect (None, 18, 128)           0         \n_________________________________________________________________\ngenerator_lstm (LSTM)        (None, 18, 128)           131584    \n_________________________________________________________________\ngenerator_softmax (Dense)    (None, 18, 54)            6966      \n_________________________________________________________________\ngenerator_soft_argmax (Lambd (None, 18, 1)             0         \n=================================================================\nTotal params: 138,550\nTrainable params: 138,550\nNon-trainable params: 0\n\n_________________________________________________________________\nModel: &quot;gan&quot;\n_________________________________________________________________\nLayer (type)                 Output Shape              Param #   \n=================================================================\ngenerator_model (Model)      (None, 18, 1)             138550    \n_________________________________________________________________\ngan_discriminator (Sequentia (None, 1)                 544945    \n=================================================================\nTotal params: 683,495\nTrainable params: 138,550\nNon-trainable params: 544,945\n_________________________________________________________________\n\n\n</code></pre>\n<p>Do you have any suggestions on the model and what might possibly be wrong?</p>\n"}], "has_more": false, "quota_max": 300, "quota_remaining": 169}]