…
ers=32, kernel_size=3, strides=2, padding='same', activation='relu',),\n            # No activation\n            tf.keras.layers.Conv2DTranspose(filters=32, kernel_size=3, strides=2, padding='same', activation='relu'),\n            tf.keras.layers.Conv2D(filters=1, kernel_size=3, strides=(1, 1), padding='same'),\n        ]\n    )\n\n    Model: &quot;sequential&quot;\n_________________________________________________________________\nLayer (type)                 Output Shape              Param #   \n=================================================================\nconv2d (Conv2D)              (None, 128, 6, 32)        320       \n_________________________________________________________________\nconv2d_1 (Conv2D)            (None, 64, 3, 32)         9248      \n_________________________________________________________________\nconv2d_2 (Conv2D)            (None, 32, 2, 64)         18496     \n_________________________________________________________________\nconv2d_3 (Conv2D)            (None, 16, 1, 64)         36928     \n_________________________________________________________________\nflatten (Flatten)            (None, 1024)              0         \n_________________________________________________________________\ndense (Dense)                (None, 64)                65600     \n_________________________________________________________________\ndense_1 (Dense)              (None, 12)                780       \n=================================================================\nTotal params: 131,372\nTrainable params: 131,372\nNon-trainable params: 0\n_________________________________________________________________\nNone\nModel: &quot;sequential_1&quot;\n_________________________________________________________________\nLayer (type)                 Output Shape              Param #   \n=================================================================\ndense_2 (Dense)              (None, 1024)              7168      \n_________________________________________________________________\nreshape (Reshape)            (None, 16, 1, 64)         0         \n_________________________________________________________________\nconv2d_transpose (Conv2DTran (None, 32, 2, 64)         36928     \n_________________________________________________________________\nconv2d_transpose_1 (Conv2DTr (None, 64, 4, 32)         18464     \n_________________________________________________________________\nconv2d_transpose_2 (Conv2DTr (None, 128, 8, 32)        9248      \n_________________________________________________________________\nconv2d_4 (Conv2D)            (None, 128, 8, 1)         289       \n=================================================================\nTotal params: 72,097\nTrainable params: 72,097\nNon-trainable params: 0\n_________________________________________________________________\n</code></pre>\n"}], "has_more": false, "quota_max": 300, "quota_remaining": 160}]